…
2, 1000) [idx, TF, strand, pwidth]\nself.ctrl_counts.shape=(93904, 2, 1000) [idx, strand, pwidth]\nself.ctrl_counts_smooth.shape=(93904, 2, 1000) [idx, strand, pwidth]\n```\n:::\n:::\n\n\n# Architecture API\n\n## Example 1: One TF, Shape Prediction, No Bias Track\n\n::: {#daa1d363 .cell execution_count=12}\n``` {.python .cell-code}\nmodel_1 = BPNet(n_dil_layers=9, TF_list=[\"Sox2\"], \n                pred_total=False, bias_track=False)\nmodel_1\n```\n\n::: {.cell-output .cell-output-display execution_count=12}\n```\nBPNet(\n  (base_model): ConvLayers(\n    (conv_layers): ModuleList(\n      (0): Conv1d(4, 64, kernel_size=(25,), stride=(1,), padding=same)\n      (1): Conv1d(64, 64, kernel_size=(3,), stride=(1,), padding=same, dilation=(2,))\n      (2): Conv1d(64, 64, kernel_size=(3,), stride=(1,), padding=same, dilation=(4,))\n      (3): Conv1d(64, 64, kernel_size=(3,), stride=(1,), padding=same, dilation=(8,))\n      (4): Conv1d(64, 64, kernel_size=(3,), stride=(1,), padding=same, dilation=(16,))\n      (5): Conv1d(64, 64, kernel_size=(3,), stride=(1,), padding=same, dilation=(32,))\n      (6): Conv1d(64, 64, kernel_size=(3,), stride=(1,), padding=same, dilation=(64,))\n      (7): Conv1d(64, 64, kernel_size=(3,), stride=(1,), padding=same, dilation=(128,))\n      (8): Conv1d(64, 64, kernel_size=(3,), stride=(1,), padding=same, dilation=(256,))\n      (9): Conv1d(64, 64, kernel_size=(3,), stride=(1,), padding=same, dilation=(512,))\n    )\n  )\n  (profile_heads): ModuleList(\n    (0): ProfileShapeHead(\n      (deconv): ConvTranspose1d(64, 2, kernel_size=(25,), stride=(1,), padding=(12,))\n    )\n  )\n)\n```\n:::\n:::\n\n\n## Example 2: One TF, Shape & Total Counts Prediction, No Bias Track\n\n::: {#34b1c90e .cell execution_count=13}\n``` {.python .cell-code}\nmodel_2 = BPNet(n_dil_layers=9, TF_list=[\"Sox2\"], pred_total=True, bias_track=False)\nmodel_2\n```\n\n::: {.cell-output .cell-output-display execution_count=13}\n```\nBPNet(\n  (base_model): ConvLayers(\n    (conv_layers): ModuleList(\n      (0): Conv1d(4, 64, kernel_size=(25,), stride=(1,), padding=same)\n      (1): Conv1d(64, 64, kernel_size=(3,), stride=(1,), padding=same, dilation=(2,))\n      (2): Conv1d(64, 64, kernel_size=(3,), stride=(1,), padding=same, dilation=(4,))\n      (3): Conv1d(64, 64, kernel_size=(3,), stride=(1,), padding=same, dilation=(8,))\n      (4): Conv1d(64, 64, kernel_size=(3,), stride=(1,), padding=same, dilation=(16,))\n      (5): Conv1d(64, 64, kernel_size=(3,), stride=(1,), padding=same, dilation=(32,))\n      (6): Conv1d(64, 64, kernel_size=(3,), stride=(1,), padding=same, dilation=(64,))\n      (7): Conv1d(64, 64, kernel_size=(3,), stride=(1,), padding=same, dilation=(128,))\n      (8): Conv1d(64, 64, kernel_size=(3,), stride=(1,), padding=same, dilation=(256,))\n      (9): Conv1d(64, 64, kernel_size=(3,), stride=(1,), padding=same, dilation=(512,))\n    )\n  )\n  (profile_heads): ModuleList(\n    (0): ProfileShapeHead(\n      (deconv): ConvTranspose1d(64, 2, kernel_size=(25,), stride=(1,), padding=(12,))\n    )\n  )\n  (count_heads): ModuleList(\n    (0): TotalCountHead(\n      (fc1): Linear(in_features=64, out_features=32, bias=True)\n      (fc2): Linear(in_features=32, out_features=2, bias=True)\n    )\n  )\n)\n```\n:::\n:::\n\n\n## Example 3: One TF, Shape & Total Counts Prediction, Bias\n\n::: {#8a6afa87 .cell execution_count=14}\n``` {.python .cell-code}\nmodel_3 = BPNet(n_dil_layers=9, TF_list=[\"Sox2\"], pred_total=True, bias_track=True)\nmodel_3\n```\n\n::: {.cell-output .cell-output-display execution_count=14}\n```\nBPNet(\n  (base_model): ConvLayers(\n    (conv_layers): ModuleList(\n      (0): Conv1d(4, 64, kernel_size=(25,), stride=(1,), padding=same)\n      (1): Conv1d(64, 64, kernel_size=(3,), stride=(1,), padding=same, dilation=(2,))\n      (2): Conv1d(64, 64, kernel_size=(3,), stride=(1,), padding=same, dilation=(4,))\n      (3): Conv1d(64, 64, kernel_size=(3,), stride=(1,), padding=same, dilation=(8,))\n      (4): Conv1d(64, 64, kernel_size=(3,), stride=(1,), padding=same, dilation=(16,))\n      (5): Conv1d(64, 64, kernel_size=(3,), stride=(1,), padding=same, dilation=(32,))\n      (6): Conv1d(64, 64, kernel_size=(3,), stride=(1,), padding=same, dilation=(64,))\n      (7): Conv1d(64, 64, kernel_size=(3,), stride=(1,), padding=same, dilation=(128,))\n      (8): Conv1d(64, 64, kernel_size=(3,), stride=(1,), padding=same, dilation=(256,))\n      (9): Conv1d(64, 64, kernel_size=(3,), stride=(1,), padding=same, dilation=(512,))\n    )\n  )\n  (profile_heads): ModuleList(\n    (0): ProfileShapeHead(\n      (deconv): ConvTranspose1d(64, 2, kernel_size=(25,), stride=(1,), padding=(12,))\n    )\n  )\n  (count_heads): ModuleList(\n    (0): TotalCountHead(\n      (fc1): Linear(in_features=64, out_features=32, bias=True)\n      (fc2): Linear(in_features=32, out_features=2, bias=True)\n    )\n  )\n)\n```\n:::\n:::\n\n\nFeatures bias weights.\n\n::: {#c8f4a880 .cell execution_count=15}\n``` {.python .cell-code}\nmodel_3.profile_heads[0].bias_weights\n```\n\n::: {.cell-output .cell-output-display execution_count=15}\n```\nParameter containing:\ntensor([0.0100, 0.0100], requires_grad=True)\n```\n:::\n:::\n\n\n## Example 4: All TFs, Shape & Total Counts Prediction, Bias\n\n::: {#0bdf1a86 .cell execution_count=16}\n``` {.python .cell-code}\nmodel_4 = BPNet(n_dil_layers=9, TF_list=[\"Sox2\", \"Oct4\", \"Nanog\", \"Klf4\"], pred_total=True, bias_track=True)\nmodel_4\n```\n\n::: {.cell-output .cell-output-display execution_count=16}\n```\nBPNet(\n  (base_model): ConvLayers(\n    (conv_layers): ModuleList(\n      (0): Conv1d(4, 64, kernel_size=(25,), stride=(1,), padding=same)\n      (1): Conv1d(64, 64, kernel_size=(3,), stride=(1,), padding=same, dilation=(2,))\n      (2): Conv1d(64, 64, kernel_size=(3,), stride=(1,), padding=same, dilation=(4,))\n      (3): Conv1d(64, 64, kernel_size=(3,), stride=(1,), padding=same, dilation=(8,))\n      (4): Conv1d(64, 64, kernel_size=(3,), stride=(1,), padding=same, dilation=(16,))\n      (5): Conv1d(64, 64, kernel_size=(3,), stride=(1,), padding=same, dilation=(32,))\n      (6): Conv1d(64, 64, kernel_size=(3,), stride=(1,), padding=same, dilation=(64,))\n      (7): Conv1d(64, 64, kernel_size=(3,), stride=(1,), padding=same, dilation=(128,))\n      (8): Conv1d(64, 64, kernel_size=(3,), stride=(1,), padding=same, dilation=(256,))\n      (9): Conv1d(64, 64, kernel_size=(3,), stride=(1,), padding=same, dilation=(512,))\n    )\n  )\n  (profile_heads): ModuleList(\n    (0-3): 4 x ProfileShapeHead(\n      (deconv): ConvTranspose1d(64, 2, kernel_size=(25,), stride=(1,), padding=(12,))\n    )\n  )\n  (count_heads): ModuleList(\n    (0-3): 4 x TotalCountHead(\n      (fc1): Linear(in_features=64, out_features=32, bias=True)\n      (fc2): Linear(in_features=32, out_features=2, bias=True)\n    )\n  )\n)\n```\n:::\n:::\n\n\n# Appendix\n\n## Recreate Figure 1 e\n\n::: {#f1bcb6b5 .cell execution_count=17}\n``` {.python .cell-code}\ntest_dataset = ChIP_Nexus_Dataset(set_name=\"test\", \n                                  input_dir=PRC_DIR, \n                                  TF_list=['Oct4', 'Sox2', 'Nanog', 'Klf4'])\ntest_dataset\n```\n\n::: {
…
