…
rl_counts_smooth.shape=(93904, 2, 1000) [idx, strand, pwidth]"
  },
  {
    "objectID": "02_APIs.html#example-1-one-tf-shape-prediction-no-bias-track",
    "href": "02_APIs.html#example-1-one-tf-shape-prediction-no-bias-track",
    "title": "02 Dataset and NN Architecture API",
    "section": "3.1 Example 1: One TF, Shape Prediction, No Bias Track",
    "text": "3.1 Example 1: One TF, Shape Prediction, No Bias Track\n\nmodel_1 = BPNet(n_dil_layers=9, TF_list=[\"Sox2\"], pred_total=False, bias_track=False)\nmodel_1\n\nBPNet(\n  (base_model): ConvLayers(\n    (conv_layers): ModuleList(\n      (0): Conv1d(4, 64, kernel_size=(25,), stride=(1,), padding=same)\n      (1): Conv1d(64, 64, kernel_size=(3,), stride=(1,), padding=same, dilation=(2,))\n      (2): Conv1d(64, 64, kernel_size=(3,), stride=(1,), padding=same, dilation=(4,))\n      (3): Conv1d(64, 64, kernel_size=(3,), stride=(1,), padding=same, dilation=(8,))\n      (4): Conv1d(64, 64, kernel_size=(3,), stride=(1,), padding=same, dilation=(16,))\n      (5): Conv1d(64, 64, kernel_size=(3,), stride=(1,), padding=same, dilation=(32,))\n      (6): Conv1d(64, 64, kernel_size=(3,), stride=(1,), padding=same, dilation=(64,))\n      (7): Conv1d(64, 64, kernel_size=(3,), stride=(1,), padding=same, dilation=(128,))\n      (8): Conv1d(64, 64, kernel_size=(3,), stride=(1,), padding=same, dilation=(256,))\n      (9): Conv1d(64, 64, kernel_size=(3,), stride=(1,), padding=same, dilation=(512,))\n    )\n  )\n  (profile_heads): ModuleList(\n    (0): ProfileShapeHead(\n      (deconv): ConvTranspose1d(64, 2, kernel_size=(25,), stride=(1,), padding=(12,))\n    )\n  )\n)"
  },
  {
    "objectID": "02_APIs.html#example-2-one-tf-shape-total-counts-prediction-no-bias-track",
    "href": "02_APIs.html#example-2-one-tf-shape-total-counts-prediction-no-bias-track",
    "title": "02 Dataset and NN Architecture API",
    "section": "3.2 Example 2: One TF, Shape & Total Counts Prediction, No Bias Track",
    "text": "3.2 Example 2: One TF, Shape & Total Counts Prediction, No Bias Track\n\nmodel_2 = BPNet(n_dil_layers=9, TF_list=[\"Sox2\"], pred_total=True, bias_track=False)\nmodel_2\n\nBPNet(\n  (base_model): ConvLayers(\n    (conv_layers): ModuleList(\n      (0): Conv1d(4, 64, kernel_size=(25,), stride=(1,), padding=same)\n      (1): Conv1d(64, 64, kernel_size=(3,), stride=(1,), padding=same, dilation=(2,))\n      (2): Conv1d(64, 64, kernel_size=(3,), stride=(1,), padding=same, dilation=(4,))\n      (3): Conv1d(64, 64, kernel_size=(3,), stride=(1,), padding=same, dilation=(8,))\n      (4): Conv1d(64, 64, kernel_size=(3,), stride=(1,), padding=same, dilation=(16,))\n      (5): Conv1d(64, 64, kernel_size=(3,), stride=(1,), padding=same, dilation=(32,))\n      (6): Conv1d(64, 64, kernel_size=(3,), stride=(1,), padding=same, dilation=(64,))\n      (7): Conv1d(64, 64, kernel_size=(3,), stride=(1,), padding=same, dilation=(128,))\n      (8): Conv1d(64, 64, kernel_size=(3,), stride=(1,), padding=same, dilation=(256,))\n      (9): Conv1d(64, 64, kernel_size=(3,), stride=(1,), padding=same, dilation=(512,))\n    )\n  )\n  (profile_heads): ModuleList(\n    (0): ProfileShapeHead(\n      (deconv): ConvTranspose1d(64, 2, kernel_size=(25,), stride=(1,), padding=(12,))\n    )\n  )\n  (count_heads): ModuleList(\n    (0): TotalCountHead(\n      (fc1): Linear(in_features=64, out_features=32, bias=True)\n      (fc2): Linear(in_features=32, out_features=2, bias=True)\n    )\n  )\n)"
  },
  {
    "objectID": "02_APIs.html#example-3-one-tf-shape-total-counts-prediction-bias",
    "href": "02_APIs.html#example-3-one-tf-shape-total-counts-prediction-bias",
    "title": "02 Dataset and NN Architecture API",
    "section": "3.3 Example 3: One TF, Shape & Total Counts Prediction, Bias",
    "text": "3.3 Example 3: One TF, Shape & Total Counts Prediction, Bias\n\nmodel_3 = BPNet(n_dil_layers=9, TF_list=[\"Sox2\"], pred_total=True, bias_track=True)\nmodel_3\n\nBPNet(\n  (base_model): ConvLayers(\n    (conv_layers): ModuleList(\n      (0): Conv1d(4, 64, kernel_size=(25,), stride=(1,), padding=same)\n      (1): Conv1d(64, 64, kernel_size=(3,), stride=(1,), padding=same, dilation=(2,))\n      (2): Conv1d(64, 64, kernel_size=(3,), stride=(1,), padding=same, dilation=(4,))\n      (3): Conv1d(64, 64, kernel_size=(3,), stride=(1,), padding=same, dilation=(8,))\n      (4): Conv1d(64, 64, kernel_size=(3,), stride=(1,), padding=same, dilation=(16,))\n      (5): Conv1d(64, 64, kernel_size=(3,), stride=(1,), padding=same, dilation=(32,))\n      (6): Conv1d(64, 64, kernel_size=(3,), stride=(1,), padding=same, dilation=(64,))\n      (7): Conv1d(64, 64, kernel_size=(3,), stride=(1,), padding=same, dilation=(128,))\n      (8): Conv1d(64, 64, kernel_size=(3,), stride=(1,), padding=same, dilation=(256,))\n      (9): Conv1d(64, 64, kernel_size=(3,), stride=(1,), padding=same, dilation=(512,))\n    )\n  )\n  (profile_heads): ModuleList(\n    (0): ProfileShapeHead(\n      (deconv): ConvTranspose1d(64, 2, kernel_size=(25,), stride=(1,), padding=(12,))\n    )\n  )\n  (count_heads): ModuleList(\n    (0): TotalCountHead(\n      (fc1): Linear(in_features=64, out_features=32, bias=True)\n      (fc2): Linear(in_features=32, out_features=2, bias=True)\n    )\n  )\n)\n\n\nFeatures bias weights.\n\nmodel_3.profile_heads[0].bias_weights\n\nParameter containing:\ntensor([0.0100, 0.0100], requires_grad=True)"
  },
  {
    "objectID": "02_APIs.html#example-4-all-tfs-shape-total-counts-prediction-bias",
    "href": "02_APIs.html#example-4-all-tfs-shape-total-counts-prediction-bias",
    "title": "02 Dataset and NN Architecture API",
    "section": "3.4 Example 4: All TFs, Shape & Total Counts Prediction, Bias",
    "text": "3.4 Example 4: All TFs, Shape & Total Counts Prediction, Bias\n\nmodel_4 = BPNet(n_dil_layers=9, TF_list=[\"Sox2\", \"Oct4\", \"Nanog\", \"Klf4\"], pred_total=True, bias_track=True)\nmodel_4\n\nBPNet(\n  (base_model): ConvLayers(\n    (conv_layers): ModuleList(\n      (0): Conv1d(4, 64, kernel_size=(25,), stride=(1,), padding=same)\n      (1): Conv1d(64, 64, kernel_size=(3,), stride=(1,), padding=same, dilation=(2,))\n      (2): Conv1d(64, 64, kernel_size=(3,), stride=(1,), padding=same, dilation=(4,))\n      (3): Conv1d(64, 64, kernel_size=(3,), stride=(1,), padding=same, dilation=(8,))\n      (4): Conv1d(64, 64, kernel_size=(3,), stride=(1,), padding=same, dilation=(16,))\n      (5): Conv1d(64, 64, kernel_size=(3,), stride=(1,), padding=same, dilation=(32,))\n      (6): Conv1d(64, 64, kernel_size=(3,), stride=(1,), padding=same, dilation=(64,))\n      (7): Conv1d(64, 64, kernel_size=(3,), stride=(1,), padding=same, dilation=(128,))\n      (8): Conv1d(64, 64, kernel_size=(3,), stride=(1,), padding=same, dilation=(256,))\n      (9): Conv1d(64, 64, kernel_size=(3,), stride=(1,), padding=same, dilation=(512,))\n    )\n  )\n  (profile_heads): ModuleList(\n    (0): ProfileShapeHead(\n      (deconv): ConvTranspose1d(64, 2, kernel_size=(25,), stride=(1,), padding=(12,))\n    )\n    (1): ProfileShapeHead(\n      (deconv): ConvTranspose1d(64, 2, kernel_size=(25,), stride=(1,), padding=(12,))\n    )\n    (2): ProfileShapeHead(\n      (deconv): ConvTranspose1d(64, 2, kernel_size=(25,), stride=(1,), padding=(12,))\n    )\n    (3): ProfileShapeHead(\n      (deconv): ConvTranspose1d(64, 2, kernel_size=(25,), stride=(1,), padding=(12,))\n    )\n  )\n  (count_heads): ModuleList(\n    (0): TotalCountHead(\n      (fc1): Linear(in_features=64, out_features=32, bias=True)\n      (fc2): Linear(in_features=32, out_features=2, bias=True)\n    )\n    (1): TotalCountHead(\n      (fc1): Linear(in_features=64, out_features=32, bias=True)\n      (fc2): Linear(in_features=32, out_features=2, bias=True)\n    )\n    (2): TotalCountHead(\n      (fc1): Linear(in_features=64, out_features=32, bias=True)\n      (fc2): Linear(in_features=32, out_features=2, bias=True)\n    )\n    (3): TotalCountHead(\n      (fc1): Linear(in_features=64, out_features=32, bias=True)\n      (fc2): Linear(in_features=32, out_features=2, bias=True)\n    )\n  )\n)"
  },
  {
    "objectID": "02_APIs.html#recreate-figure-1-e",
    "href": "02_APIs.html#recreate-figure-1-e",
    "title": "02 Dataset and NN Architecture API",
    "section": "4.1 Recreate Figure 1 e",
    "text": "4.1 Recreate Figure 1 e\n\ntest_dataset = ChIP_Nexus_Dataset(set_name=\"test\", \n                                  input_dir=
…
